simple_cnn.pth (torch, 887394 bytes, 13 tensors)

0.0.weight f4 [32, 3, 3, 3]
00000000: 7c98 11be 4c68 3f3d 650a dabd 7e56 55bc
00000010: 5c9e 8abd 20cf 9f3d 7856 633b 6713 2dbe
00000020: 1af7 1c3d 1ce2 8cbb 2686 c83c 8213 023e
00000030: 94f3 b9bd 16a5 393e 5255 d73b d1c3 933d
00000040: 3c85 e33d f893 a9bb 34cd d73c a8ef 16bb
00000050: 5539 98bd b4c1 b93d 735b 69bd 64d3 e33d
00000060: 0fd3 a33d 68fc b13d 6d46 d83d b9f9 243e
00000070: 4be2 553d 2137 df3d d590 06be 5cde 09be
00000080: f346 36be e1cb 27be d7bf e9bc eb23 d83d
00000090: 5fbf f33d 5179 bbbc 5f54 29bd 3e00 3cbc
000000a0: 6f8d db3c f843 0ebe 951f 13be 76e0 073e
000000b0: 6056 f3bd ec8d 493e 688a 583c e22e f73d
000000c0: d6c1 90bd 7521 af3d 6390 1e3e d7d5 1d3e
000000d0: 3a04 c33d 8e51 283d e08e afbd c497 873c
000000e0: 8392 1abc df3c 9dbd 1c4d 02be 0c2e ee3d
000000f0: 4f1e 26be bef7 af3d c029 773d 5e9d 9d3d
00000100: 3513 e23c 2de3 233e acef 46be cf72 2e3e
00000110: 5b91 9e3b 3400 16bd beca f23d 2672 a3bc
00000120: 7877 a0bd 77b7 ebbd 4065 5ebc 9004 fc3d
00000130: 0713 94bd 6221 bebd dd6f 293e b3a2 89bc
00000140: 743a 9fbc 6125 6cbe 1367 66be 8eb8 a4bd
00000150: 6182 313d 8588 0e3e 7fab 11bd f2d9 e43d
00000160: 1019 0ebe 27e2 c93d f0c1 5ebd 7ad9 f0bd
00000170: 88dc 3d3d 5546 d73d b894 4abd 3325 15be
00000180: cbe4 b5bd 30ad 3d3d ad2f ac3d 2268 efbd
00000190: 0631 50bd 21fa 6b3c da35 833d 9dac 0b3d
000001a0: 6008 1dbd 06cc 38be 7807 88bc 193b a4bd
000001b0: a7bb 083d c25e 0fbe 7a37 b33c 6143 8cbc
000001c0: 2f1a 0ebe f5c7 213e 0e78 7bbc 74d2 37bc
000001d0: 4dd4 e63d f423 f4bd 4d18 5bbd 513c a5bd
000001e0: b901 e7bd 2c91 9abd da79 223e bfe8 04be
000001f0: e7e2 44be 6277 2d3d d35c 48be b03a 2cbe
00000200: bb3f 9dbd be1e 263e a64b 40be 1824 dfbd
00000210: 346d 92bd c176 a9bd eeaa b93d b9fa f63d
00000220: 9516 a43d 49d8 a0bd 9603 35be e036 44bd
00000230: 523a c43c a7f3 753d 2a43 c2bd 7832 9d3d
00000240: 0268 3fbe 2d0e 3fbe edbf 9abc 905b b33d
00000250: a07e 75be 4c22 0b3d 3b53 51be 2eba 8a3a
00000260: 1e10 4dbe a909 c33d 30a8 1ebd e4a3 a4bd
00000270: 3188 82bd 38f2 02bd 0d95 b7bd 7f1e 123e
00000280: 7a04 83bd 93c2 ed3d 7cda 0c3e 5033 0b3e
00000290: 982c 17be 0dfe b3bd 5b70 44be 0516 863d
000002a0: 5d5e c3bd 7f86 efbd ae51 033e 9cff 57bd
000002b0: c3f9 eabd 096f 59bd 8d95 05be bdd1 1b3e
000002c0: 4ae6 10be 363d 38be c8cf 8abd 36df 803c
000002d0: 7497 00bd 9526 5e3d 7d34 0b3e 46e8 41be
000002e0: cc05 0dbe 086a 353e a765 cb3d 97e1 1b3e
000002f0: 71d7 0d3d 0230 c4bc bf27 8f3d d1b0 133e
00000300: c947 323e 2be1 0c3e f55b 10be caa4 02be
00000310: ea6a 193e a705 8c3c 94e4 85bd f8fe 34bd
00000320: 545c 263e 662a 0dbd 16c2 283e 1aad 833d
00000330: 39d6 2bbe 2b2b 7c3d ec8f d73d 5dc9 16be
00000340: 9f41 853d 3a79 8b3d 1e31 bd3d 2305 cd3d
00000350: c3e1 db3b 114e 0c3c 8d07 b53d 1eac 1f3e
00000360: d2a1 28bd 8480 bf3d 683a 9e3c 1b53 90bc
00000370: 8e12 75bd 530b 57bd d89e b8bc 4741 6b3d
00000380: f973 52bd e8e8 10be d097 be3c b00b 8d3d
00000390: 096d b6bd 60e9 19be dfb7 103d e297 ab3c
000003a0: b4df d2bc c436 0cbe 170f 003e 8e0a f1bc
000003b0: 918a d6bd b5f3 14be 59aa 443d a643 03be
000003c0: 8e8f 713d b425 33bd 024f 08be f94b 0a3e
000003d0: f555 053d 8e38 763d 76be 66bd 74d4 10be
000003e0: d06c 97bd 3809 3f3e 5aa5 273e 9899 ae3d
000003f0: 7129 bc3c 1f71 23be 1094 08be c469 cc3d
-0.14218324 0.046730325 -0.10646514 -0.01302111 -0.06768486 0.07803178 0.003468899 -0.16901933
0.038321592 -0.0042994153 0.02447803 0.12702754 -0.09079662 0.18129382 0.0065714503 0.072150834
0.11109397 -0.00517511 0.026342966 -0.002303103 -0.0743281 0.09070149 -0.05697198 0.11124304
0.079992406 0.08690721 0.10560308 0.16110887 0.052217763 0.10899187 -0.13141187 -0.1346373
-0.17800502 -0.16386367 -0.02853386 0.10553726 0.119017355 -0.022884997 -0.04134023 -0.011474667
0.02680084 -0.13893116 -0.14367516 0.13269219 -0.11881709 0.19683045 0.013216592 0.12069489
-0.07068221 0.08551303 0.15484767 0.15413605 0.095222905 0.0410934 -0.08572173 0.01655186
-0.009434345 -0.07677626 -0.12724727 0.116298765 -0.162225 0.08592175 0.06034255 0.07696031
0.02759705 0.1600463 -0.19427365 0.17035984 0.004839105 -0.036621287 0.11855076 -0.019951891
-0.07835287 -0.115096025 -0.013573945 0.12305558 -0.07230192 -0.09283711 0.16546579 -0.016801214
-0.019437052 -0.23061134 -0.22500257 -0.080430135 0.04333723 0.13919266 -0.035563942 0.11174382
-0.13876748 0.09857588 -0.054384172 -0.1176023 0.046352893 0.10511462 -0.049458236 -0.14564972
-0.088815294 0.046307743 0.08407531 -0.11689784 -0.050828002 0.014402897 0.06406756 0.034100164
-0.038338065 -0.18046579 -0.016605124 -0.080190845 0.033382084 -0.14000991 0.02187704 -0.017121973
-0.13877176 0.15798934 -0.0153484475 -0.0112196095 0.11270962 -0.1192092 -0.053489972 -0.08068145
-0.112796254 -0.075472206 0.15866795 -0.1297941 -0.19227181 0.04235018 -0.1956666 -0.16819263
-0.07678171 0.16222665 -0.18778858 -0.10895556 -0.07149735 -0.08274604 0.090658054 0.1205954
0.0801212 -0.07853753 -0.17677149 -0.047903895 0.02395359 0.060046818 -0.09485467 0.07675642
-0.1869202 -0.18657751 -0.018890345 0.087576985 -0.23974085 0.033968255 -0.20441906 0.001058405
-0.2002568 0.09523327 -0.038734615 -0.08039072 -0.06373633 -0.03196928 -0.08963976 0.14269446
-0.06397338 0.11609378 0.1375522 0.13593793 -0.14763105 -0.08788691 -0.19183485 0.06547169
-0.09539483 -0.11695575 0.12824127 -0.052734002 -0.114734195 -0.053084407 -0.1304533 0.15216728
-0.14150348 -0.179921 -0.067779124 0.015731435 -0.031394437 0.054236013 0.13594241 -0.18936262
-0.13771743 0.17716229 0.09931498 0.15222774 0.03462929 -0.023948673 0.06990003 0.14422919
0.17410196 0.1375777 -0.14097579 -0.12758175 0.1498219 0.017092539 -0.065377384 -0.04418847
0.16246158 -0.034464262 0.16480288 0.06429501 -0.16780938 0.061564606 0.10525498 -0.14725251
0.06506657 0.068102315 0.09237884 0.100107454 0.0067102625 0.008563534 0.08839331 0.15593001
-0.04116995 0.09350684 0.01931496 -0.017617753 -0.05983215 -0.052501034 -0.02253668 0.0574353
-0.05138013 -0.14151347 0.02326575 0.06886995 -0.089075156 -0.15030432 0.035331603 0.020946447
-0.025741436 -0.13692766 0.12505756 -0.029423978 -0.10475648 -0.14546092 0.04801402 -0.12818775
0.058974795 -0.04373713 -0.13311389 0.13505544 0.03255268 0.06011253 -0.05633398 -0.14143544
-0.07393801 0.1865586 0.1637167 0.085253894 0.02296898 -0.15961121 -0.13337731 0.09981111

0.0.bias f4 [32]
00000000: 6288 ab3c 2320 2d3e 6a9e 8abd d1b9 023d
00000010: 2c9f cc3d 5e80 9e3d 4163 e43d f394 4a3d
00000020: 98bc 5d3d 9aa5 0bbe f9cd 6ebd 8f9a ac3d
00000030: 47d4 a83c 3695 f0bc 6028 913d adef b9bd
00000040: 7557 27bd 3698 debc 8157 da3d 450a 6f3c
00000050: f2d2 8a3d 23e8 173e 81ac 243e 7081 e9bd
00000060: 29ea c5bc 00fc 23bd 1a0c e1bd 9fe9 16be
00000070: 7673 30be af87 59bc 0b92 14be c79b 973d
0.020939056 0.1690679 -0.06768496 0.03191549 0.09991297 0.07739328 0.11151744 0.049458455
0.054134935 -0.1363739 -0.0583019 0.08427917 0.020609034 -0.029368024 0.07087779 -0.09078918
-0.04085489 -0.02717219 0.10661221 0.014589851 0.06778516 0.14834647 0.1608143 -0.11401641
-0.024159508 -0.040035248 -0.10988636 -0.14737557 -0.17231545 -0.013276978 -0.14508836 0.07402759

0.2.weight f4 [32]
00000000: 9ec4 7f3f bd68 783f 1151 793f 2107 733f
00000010: 7b41 823f 222a 813f 90e5 7a3f b7bc 873f
00000020: e826 7c3f 0000 803f 5b5d 893f b198 783f
00000030: 35d3 853f 9452 873f 48e1 803f 693a 7a3f
00000040: 071d 7d3f bb0d 7c3f 84c1 793f 45c8 7c3f
00000050: 7dad 823f d0d4 843f 3315 6c3f 5331 873f
00000060: 77a9 893f a0e3 893f 4ab9 763f e4fb 7b3f
00000070: 89c7 783f ffd0 883f 0000 803f daac 853f
0.9990939 0.9703482 0.9738932 0.9493275 1.0176233 1.0090983 0.98006535 1.0604466
0.98496866 1.0 1.0731615 0.9710799 1.045508 1.0572076 1.006875 0.97745377
0.9887242 0.9845845 0.97560906 0.9874309 1.0209194 1.0377445 0.9221985 1.0561928
1.0754842 1.0772591 0.9637648 0.9843123 0.97179466 1.068878 1.0 1.0443375

0.2.bias f4 [32]
00000000: e236 c03c b0a6 09bc d4df 6f3d af70 803d
00000010: 7ae4 08bc bd1d 943c 4b8b 9e38 7ebe 8b3b
00000020: 5770 b538 62fa 673c 4dd2 c83c acb3 973c
00000030: 78ae c2ba 872e c03c 2b20 58bb 6949 0e3d
00000040: 723b 0abb 4f51 a0bb 8866 c33c 18df c83b
00000050: 1af1 aeba fcc1 633c 5aa0 c13c dc59 bd3c
00000060: 2fa3 ed3c 7486 f83c 9830 953d 335d 40bb
00000070: f97d 013d e4f4 ac3c bb3a 65b9 501a e13c
0.02346367 -0.008401558 0.05856307 0.06271493 -0.008355254 0.018080587 7.5599724e-05 0.004264652
8.6516775e-05 0.014158817 0.024514342 0.018518291 -0.0014853021 0.023459686 -0.0032978158 0.034737978
-0.002109256 -0.0048925052 0.023852602 0.0061301105 -0.0013347 0.01390123 0.023636032 0.023114137
0.029008476 0.03033755 0.07284659 -0.0029352426 0.031614278 0.021112867 -0.0002186102 0.027478367

0.2.running_mean f4 [32]
00000000: 21a0 ed3d fcc2 3e3e 9700 f039 6a4a 8539
00000010: 67b8 df36 1999 5530 44cb a439 a7c9 e03e
00000020: 6ccb 1f35 0000 0000 e92a b63e 1c05 a73e
00000030: 4926 ad3e 0d02 ca3e 43c8 ce34 16e3 2f34
00000040: 0000 0000 16fb ec35 05bb 883a ea6a d135
00000050: 90bc 9439 a02c 253f d837 1139 1168 b83e
00000060: 4487 a03e 2438 eb3e 0000 0000 0000 0000
00000070: 7848 693e 2388 503f 0000 0000 9d7d 313f
0.11602808 0.18629068 0.00045776807 0.0002542318 6.667385e-06 7.7706513e-10 0.00031431962 0.4390385
5.9528134e-07 0.0 0.35579613 0.32621086 0.33818272 0.3945469 3.85162e-07 1.6380758e-07
0.0 1.7656446e-06 0.0010431713 1.560283e-06 0.0002836925 0.6452122 0.00013849081 0.36016896
0.313532 0.4594127 0.0 0.0 0.22781551 0.8145773 0.0 0.69332296

0.2.running_var f4 [32]
00000000: 3362 753b 3026 aa3b 25c9 5f38 13e5 8b37
00000010: bfe6 6c34 61a6 362d 5f3a e637 82a8 423c
00000020: 9912 3032 0000 0000 350d 203c d4a9 613b
00000030: 02d1 413c 7e9c 4d3c 1e3f 8032 32ab d731
00000040: 0000 0000 61b0 3434 891c 7839 33cd 0732
00000050: 7530 a937 cdd0 cd3c d390 f436 0fe3 c13c
00000060: 6abf 173c b2bb 633c 0000 0000 0000 0000
00000070: 3d92 3f3c 1250 183d 0000 0000 8267 b53c
0.0037442564 0.0051925406 5.3354674e-05 1.6676762e-05 2.2063158e-07 1.0382446e-11 2.7445318e-05 0.011880996
1.0248777e-08 0.0 0.009768774 0.00344335 0.0118296165 0.012549518 1.4929864e-08 6.276786e-09
0.0 1.6827973e-07 0.00023661753 7.904691e-09 2.0168934e-05 0.025123978 7.2886264e-06 0.02366784
0.009261945 0.0138997305 0.0 0.0 0.011692581 0.037185736 0.0 0.022144083

1.0.weight f4 [64, 32, 3, 3]
00000000: a1fa 2c3c 67b4 a5bd 5356 b43b 26fa 6a3c
00000010: 464b c9bb 6b95 7abd 0596 a2bd a6c5 583a
00000020: d2ab be3c 5cf5 ae3b f9bd 35bc 8530 acbc
00000030: 5916 c6bb 761b f7bc e6a8 793c 6418 61bb
00000040: 24b9 9b3b 679e 72bd a2c8 1f3d 1230 1fbd
00000050: 4e41 453c a6ff b8bc 5971 693c e57a 0d3d
00000060: bb6e ae3c 22e3 40bd fa47 513d dfd2 50bc
00000070: ee0b ccbc 975a ccbc d8ea aabc b00d 343d
00000080: a2a0 96bc 4b8b 143c 9665 11bd 1adb 1f3d
00000090: ec87 72bd e252 96bc e644 8e3b 72fb a2bc
000000a0: d460 bb3c b816 ac3a 3efe 053d f80d 50bc
000000b0: 5ff4 94bc d4b5 a33c 5d56 473d 06b1 903c
000000c0: 2b0f bf3d a677 8b3d 09bd 9d3d ebfd c53b
000000d0: 9751 d2bb 4bb7 003d c9c5 053c 162b 74bd
000000e0: c043 6d3c c0dd 1cbd b95b 5bbd fcd8 1bbc
000000f0: d770 cebc 1f78 e5bc c92f 0abd 9e44 383d
00000100: eb20 403d e55a 30bc 8aa3 043d a5d3 433d
00000110: 28c8 113d b0a5 4b3c d087 283d e8d0 8e3d
00000120: 2738 423d 9e7a dcbc 14e7 cdbc 7bb9 f6bc
00000130: 725e a83c 49be e7bc 5cbb 8e3c 1221 423d
00000140: 8175 88bd d2e9 853c 6305 453d c868 0e3d
00000150: 43cd 1c3d 106d 0dba f272 683c d55b 48bc
00000160: 92c3 96bb 035b 32bd 784b 96bb 6e37 bb3d
00000170: 10f1 0f3d 4d20 c13c 0584 a93d ccb6 2439
00000180: 7a2f 6e3d 1b09 6a3d d9a2 833d c162 77bb
00000190: 653c 983d b5b9 713c e508 423d c4c1 bfbc
000001a0: 6f42 413d 9cae ae3c 1868 bd3c 01b6 123b
000001b0: b6c8 69bd 53da 823c 2d74 fe3c 4b09 bebc
000001c0: be62 3ebb 95c2 f43c d16a 29bd 5be2 4d3c
000001d0: 8c07 f5bc b549 9e3d 1661 473d 9571 5f3c
000001e0: bbbb b53d 4da7 d53a eb48 763d a87f a83d
000001f0: c3b9 bd3d 5974 0a3d eecf 62bd 96dc 50bc
00000200: f59e 0d3d 2c1b 19bd 9d88 94bc 8d0c 993c
00000210: 9594 e43c 0937 4abb c215 803c 1086 19bd
00000220: 6163 72bc 7442 243c a18b 4dbd 903d 96ba
00000230: 0709 f53c 3c1e 43bd 0eb9 dbbc 891c 913a
00000240: f4d3 f03a 953f 76bd d7fa 0cbd fc33 06bd
00000250: a1d2 92bb 0a5d 64bd 9ca2 71ba 5449 303d
00000260: f41f 0bbd d607 0bbd 7f28 1dbd bd05 47bd
00000270: 1474 143d 3d76 3e39 cedf 0c3d d020 bd39
00000280: 8bf7 0d3d 0d60 ecbc ce94 533d de4d df3c
00000290: 76ba 09b9 87e4 7abc 76b4 78bd 4bda 783c
000002a0: 7732 043c 81e7 143d 49fb d3bc 49a5 e9bb
000002b0: d168 703d 45e1 2a3c 091d 25bc cf52 263c
000002c0: 495e 1dbd 81a2 353d 4253 bc3c 908c 263d
000002d0: 484a adbc 462c 8d3d bc56 043d 00d2 693d
000002e0: d293 cf3b f78e b1bc 631a 97bb 122f 473d
000002f0: 3588 7ebc c3af 313d c798 5c3d 8515 22bd
00000300: 5b0a 653d e607 06bd a65b 8e3c c1e1 ccbb
00000310: a192 a7bc b362 713c 0e56 56bd 9a06 3b3b
00000320: f115 5ebd b745 55bd f090 a7bd b996 6dbc
00000330: 87e2 0ebd 6e15 513c 6283 52bc bbe1 a13c
00000340: 15dc e93c 373e 22bd 55c0 e9bc 288a 13bb
00000350: 2f4b 353d 63e1 bf3c 3aaf 2dbd 46f3 843c
00000360: 8aad acbc a5d5 a33d e34a f23c a496 ac3d
00000370: e2f9 8cbc 1a06 163d a62b 6c3d 293c c23c
00000380: 1f95 a1bb de68 87bc d120 a83d 0a38 ae3d
00000390: 3ab6 87bc 4eb4 703d 55be c0bc 64ac a73d
000003a0: fe06 173c 17a1 af3d 148f 5abd e69e 31bd
000003b0: 2d2c f1bc acb6 fb3c c1e1 19bd 1fd7 323d
000003c0: 6a7d 0ebd 878b 5bbd 8546 d9bc 0feb eb3c
000003d0: 1c9f 073d 714b 43bb dcb0 3fbd bf51 6ebd
000003e0: 3541 343d df77 16bc 30f4 8f3d 0866 24bd
000003f0: 55e9 763c 1d75 bdbc fb44 32bd 0849 f9bc
0.010557801 -0.0809105 0.0055034547 0.014341867 -0.0061430065 -0.061177652 -0.0793877 0.0008269198
0.02327529 0.0053393077 -0.011092656 -0.02101923 -0.0060451445 -0.030164462 0.015238022 -0.0034346813
0.004752295 -0.059233095 0.039009698 -0.038864203 0.012039496 -0.02258284 0.014248216 0.03454103
0.021293035 -0.04709161 0.051094033 -0.012745588 -0.024908032 -0.02494554 -0.020863935 0.043958366
-0.018387143 0.009066413 -0.03549727 0.03902731 -0.059211656 -0.018350068 0.0043417094 -0.01989529
0.02287332 0.0013129329 0.032713167 -0.012698643 -0.018182931 0.019984163 0.048666347 0.017662536
0.09329065 0.068099305 0.07702071 0.0060422323 -0.0064184177 0.0314248 0.008164831 -0.059611402
0.014481485 -0.038297415 -0.05355427 -0.009512182 -0.02520029 -0.02801138 -0.033736978 0.044987313
0.046906393 -0.010763858 0.032382526 0.04780926 0.035591274 0.01242964 0.041145146 0.069734395
0.047416832 -0.026913937 -0.0251346 -0.03011774 0.020552848 -0.028288977 0.017423324 0.04739482
-0.06663037 0.016346846 0.04810084 0.034767896 0.03828169 -0.0005394975 0.014187561 -0.012228926
-0.0046009505 -0.043543827 -0.0045866333 0.09141432 0.035142004 0.023574973 0.08277134 0.00015708356
0.058150746 0.05713759 0.06427545 -0.003774807 0.07433394 0.014753749 0.047371764 -0.023407824
0.047182497 0.021323495 0.023120925 0.0022386315 -0.05707618 0.015973246 0.031061256 -0.02319779
-0.0029050554 0.02987794 -0.041361634 0.012566174 -0.029910825 0.07728902 0.048676573 0.01363792
0.08873697 0.001630047 0.060128134 0.082274735 0.09263947 0.033802364 -0.05537408 -0.012747904
0.03457542 -0.03737943 -0.018131549 0.018682742 0.02790288 -0.0030855557 0.015635375 -0.037481368
-0.014794202 0.010025609 -0.05018199 -0.0011462439 0.029911531 -0.047636256 -0.02682164 0.0011071126
0.0018373714 -0.06011923 -0.034418907 -0.03276442 -0.0044806753 -0.05575279 -0.0009217651 0.04303868
-0.03396602 -0.03394302 -0.0383687 -0.048589457 0.036243513 0.00018163859 0.034393124 0.00036073336
0.034659903 -0.028854394 0.051655583 0.02725881 -0.000131348 -0.015313274 -0.060718976 0.015188764
0.008068672 0.03635359 -0.025876658 -0.007130299 0.05869371 0.010429685 -0.010077723 0.010151579
-0.038419995 0.04434443 0.02298892 0.040661395 -0.021153584 0.0689321 0.03230928 0.057085037
0.00633476 -0.021674616 -0.0046113 0.048628874 -0.015535404 0.04338051 0.053856637 -0.039571304
0.05591808 -0.032722376 0.017377686 -0.006252498 -0.02045566 0.014733004 -0.052328162 0.002853787
-0.054220144 -0.05206844 -0.081819415 -0.014501267 -0.034884002 0.012761457 -0.012848707 0.019760957
0.028547326 -0.039610114 -0.028534094 -0.0022512767 0.044261154 0.023422902 -0.042403437 0.016229283
-0.021078844 0.07999734 0.029576724 0.0842717 -0.017208997 0.036626913 0.057658814 0.023710327
-0.0049311067 -0.016529497 0.08209384 0.08506782 -0.016566385 0.058765702 -0.023528257 0.08187178
0.009217976 0.08575647 -0.053359106 -0.043364428 -0.02944001 0.030726753 -0.03756881 0.043662187
-0.034787573 -0.05359986 -0.026522884 0.028798608 0.033110723 -0.0029799605 -0.046799526 -0.058183428
0.0440075 -0.009183853 0.07028997 -0.040136367 0.015070279 -0.023127133 -0.043522816 -0.030430332

1.0.bias f4 [64]
00000000: 7c40 1ebd 69b7 6d3d 6025 0f3d 8f86 50bd
00000010: 1596 eabc 8c8b 11bc bd05 82bc b5d2 e93c
00000020: c148 29bb 4e24 23bd db76 9ebd fe21 cdbc
00000030: 3dc4 173d 29ff 69ba 1bb2 b8bd 8030 b83c
00000040: b412 923d 40fc 5abd 9fc2 8fbd 12ab a03c
00000050: 8844 083d 02e1 a33c e6a2 803d 0f84 5abd
00000060: 13b3 42bd c326 0bbd 4c02 38bd 631f acbd
00000070: 4698 753c 90e4 07bd ba93 6d3d b2d7 603d
00000080: d1dd 1c3c a820 54bd 3ce9 c83c b7de 9cbd
00000090: 4a51 91bc b06d 8dbd 7cff a33c f6e0 203d
000000a0: c2fe 53bc cda9 55bd bcdf aabc 3595 263c
000000b0: 4b0c 4cbd d69a a23b 00a7 f03c 5e9a ed3c
000000c0: 9d12 34bc 8604 51bd 2904 6abb ef47 963d
000000d0: e8b7 01bd c17c 9a3c af39 903c c893 d0bd
000000e0: deee 6a3d ac79 72bd 8a68 2abd 3736 01bc
000000f0: 3a91 45bd b6c1 48bd b318 0e3d 94b4 463b
-0.038635716 0.05803624 0.034947753 -0.050909575 -0.028636018 -0.008883368 -0.015871877 0.028542856
-0.0025830718 -0.039829545 -0.07737514 -0.025040623 0.03705238 -0.00089262665 -0.09018346 0.022484064
0.071324736 -0.05346322 -0.07019543 0.019612823 0.03326848 0.020004753 0.062810704 -0.053348597
-0.04753406 -0.033972513 -0.044924065 -0.08404424 0.014989918 -0.03317696 0.05800221 0.054893203
0.0095743695 -0.051788956 0.024525277 -0.07659667 -0.017738957 -0.06905687 0.020019285 0.03927704
-0.012939157 -0.052163888 -0.020858638 0.01016741 -0.04981641 0.0049623055 0.029376507 0.029004272
-0.010990766 -0.051029705 -0.0035708046 0.07337939 -0.031669527 0.018858315 0.01760563 -0.10184437
0.057356708 -0.059198067 -0.041603602 -0.007886461 -0.048234202 -0.049012862 0.034691524 0.0030320035

1.2.weight f4 [64]
00000000: 9f46 783f 7bce 793f 382f 803f ada8 813f
00000010: 37ae 833f 3692 8b3f b291 793f febb 763f
00000020: 95c9 733f 2fd7 883f 7d6b 823f 0bfc 8b3f
00000030: fcf2 773f cd84 883f 933c 763f a18b 8c3f
00000040: aabf 753f b225 713f 477c 7c3f 2db1 6b3f
00000050: 3bde 6d3f 03cf 723f 1528 793f f3b6 8b3f
00000060: 602c 873f d200 8a3f 2636 893f dfa4 823f
00000070: 3619 813f dff7 893f a878 733f 869e 753f
00000080: 4118 713f 5108 883f 1f9e 8b3f 6910 843f
00000090: b703 783f e305 8a3f a8d4 873f f020 7e3f
000000a0: e6c3 783f 1673 763f 99ab 763f ff2a 7e3f
000000b0: 52ad 733f feee 813f 98f9 713f b8e9 773f
000000c0: 4f7b 883f 5fd2 773f f8a7 8c3f 363e 7a3f
000000d0: e6de 863f b7da 713f 2b45 763f 3ed3 693f
000000e0: 0471 703f eec9 873f c153 843f b04b 773f
000000f0: b59c 803f 2659 783f 4715 7f3f c96b 743f
0.9698276 0.9758069 1.001441 1.0129601 1.0287541 1.0903995 0.9748794 0.96380603
0.95229465 1.0690669 1.0189053 1.0936292 0.9685514 1.0665528 0.9618618 1.0980111
0.9599558 0.94198143 0.9862713 0.92067224 0.9291722 0.94847125 0.97326785 1.0915207
1.0560417 1.07815 1.071965 1.0206565 1.0085819 1.0778769 0.9510598 0.9594501
0.94177634 1.0627538 1.090763 1.0317508 0.9688067 1.0783046 1.0611773 0.9926901
0.9717392 0.9626936 0.9635559 0.99284357 0.9518634 1.015106 0.94521475 0.96841
1.0662631 0.96805376 1.098876 0.97751176 1.0536773 0.9447436 0.9619929 0.91337955
0.9392245 1.0608499 1.033806 0.96599865 1.0047823 0.9701103 0.9964184 0.9547697

1.2.bias f4 [64]
00000000: fa8b ae3c ffdd da3c 4cb0 98bc fd1d 1dbb
00000010: 9b83 01bd 5c6f f0bc 8a8d aebb 36b0 e43b
00000020: 1fad 113c 599d bcbc 1daf 16bd a9f9 f8bc
00000030: 91c3 913d b563 f1bc 7b42 0d3b 7ff5 fdbc
00000040: 0411 7c3c c106 953c eba5 253b 5ba2 3c3c
00000050: cdb5 c3bb 769a 3f3c 42ac 263c 91a1 d8bc
00000060: 7547 ccbc 5f48 f5bc f103 e3bc c774 69bc
00000070: 15f7 9ebc a12c eabc 8518 6fbc 8e68 be3c
00000080: 5ef0 053b 07e3 eabc 2359 ffbc 6978 ae3c
00000090: a9ef a83c b924 99bc c41a 85bc b616 b93c
000000a0: 5bb5 b43b 901c 833c 8a21 a23c 7213 1f3c
000000b0: d3a3 ff3b f107 3bbc 7ed4 14bc 1991 afbb
000000c0: 4041 9cbc 54bf a33c 16f6 02bd 6615 753c
000000d0: 8f28 74bd dc7a 823b bce8 a83b be01 a03d
000000e0: 8759 133c 21c0 b2bc 2844 19bc 44d3 153c
000000f0: 24d3 67bb 91f4 673c 3768 3ebc bc9a 813c
0.02130698 0.026717184 -0.018638752 -0.0023974173 -0.03161965 -0.029349975 -0.0053269314 0.006979014
0.008891373 -0.023024248 -0.036788095 -0.030392485 0.071173795 -0.02946649 0.0021554518 -0.03100085
0.015384916 0.018191697 0.0025275897 0.011513318 -0.0059726 0.011694541 0.010172905 -0.026444228
-0.024936417 -0.029941736 -0.02771184 -0.014249033 -0.019404927 -0.028585734 -0.014593248 0.023243215
0.002043746 -0.028672708 -0.031170433 0.02129765 0.020622091 -0.018694269 -0.016248114 0.022593837
0.0055147833 0.01600483 0.019791383 0.009709226 0.007801512 -0.011415468 -0.009083865 -0.005357873
-0.019074082 0.019988693 -0.031972967 0.014958715 -0.059608992 0.003981931 0.005154697 0.07812832
0.008993513 -0.02182013 -0.009354629 0.009144608 -0.0035373652 0.01415743 -0.011621526 0.015820853

1.2.running_mean f4 [64]
00000000: d153 8c3f 81c3 a53f b95f 693f 21af 553f
00000010: 8c3f bb3f d6a8 cd3f 4fd9 813f 0834 803f
00000020: 8506 923f e38a 963f c6d5 c93f 8cce ce3f
00000030: 908a af3f 2747 d93f cefc 043f 0e65 de3f
00000040: 3cfd 373f 6034 a33f 1651 b43f 2304 c83e
00000050: b872 223f 7942 d43e a745 823f 931d 8c3f
00000060: aa91 d43f c9bf 9b3f 9d7f 853f 1151 c63f
00000070: 764d b83f 0b77 af3f cea5 9a3f 12a1 9f3f
00000080: 228f 623f dc0f bb3f 8d8a d93f ac79 e13f
00000090: b662 823f a2f9 c63f 5739 c13f dceb a23f
000000a0: 6775 ab3f 86e2 963f 2ef8 ed3e cdc7 bf3f
000000b0: be9a 4e3f 9a1d a53f fdde 033f 8957 9a3f
000000c0: a9f7 823f e461 8f3f f55a cb3f d828 933f
000000d0: 2535 bb3f 30b4 6a3f c26b f93e fc88 a63e
000000e0: 919d a93f 4b3b dc3f e126 8e3f e7fd 9e3f
000000f0: 0860 803f eaa0 bd3f 222e b73f 95d3 9d3f
1.0963079 1.2950288 0.91161686 0.8347035 1.4628768 1.606715 1.0144442 1.0015879
1.140824 1.1761135 1.5768363 1.6156783 1.3714161 1.6974839 0.5194825 1.737459
0.7187078 1.2750359 1.4087245 0.39065656 0.63456297 0.41456965 1.0177506 1.0946525
1.6606953 1.2167903 1.042957 1.549349 1.4398639 1.3708204 1.208185 1.247103
0.88499653 1.4614215 1.6995407 1.7615256 1.0186374 1.5544932 1.5095624 1.2728229
1.3395203 1.178788 0.4647841 1.4982849 0.8070487 1.2899659 0.5151213 1.2057964
1.023183 1.1201749 1.5887133 1.149684 1.4625593 0.91681194 0.48715025 0.32526386
1.325121 1.7205595 1.1105615 1.2421235 1.0029306 1.4814732 1.4310954 1.2330195

1.2.running_var f4 [64]
00000000: 21ae fe3f 9b8b 2b40 5e64 ae3f ac10 9f3f
00000010: ace7 5140 1420 7d40 e8be db3f 9ca0 d23f
00000020: 366f 0840 57c0 0640 c646 7640 7d42 7e40
00000030: ea97 4840 ca7b 8b40 513e 9e3f 49ac 9340
00000040: f9a8 993f 4e0e 2840 51f0 4c40 7192 b53e
00000050: 0eda 353f 4be4 a43e c69f d33f 3474 e93f
00000060: d0d6 8840 fd9f 1140 d28a d93f f65a 6d40
00000070: 6753 5340 0571 3840 102a 3440 bee7 1e40
00000080: b92f a53f f349 5240 86b1 8b40 452e 9a40
00000090: c4c2 f13f 1bd6 6e40 7044 5e40 0b08 3040
000000a0: 33a9 3340 c8c9 4540 4959 073f 173f 6340
000000b0: 81c1 983f 4eaa 2340 ae04 873f e3bb 0d40
000000c0: 8a12 cb3f 6c44 1d40 74b0 7240 cd93 0940
000000d0: 0150 4d40 25bb a93f 4d48 683f b071 803e
000000e0: c7d0 2940 52f0 9140 c286 0440 b038 2340
000000f0: a7f8 d73f 6b3d 5340 5a44 4e40 800a 1840
1.989689 2.6803958 1.362438 1.2426963 3.2797651 3.955083 1.7167635 1.6455264
2.1317878 2.1054895 3.8480697 3.9728081 3.134272 4.358861 1.2362767 4.614781
1.2004691 2.625873 3.2021677 0.35463288 0.7103585 0.32205424 1.6533134 1.8238587
4.276222 2.27539 1.699549 3.7086768 3.3019655 2.8818982 2.8150673 2.4828944
1.2905189 3.2857635 4.3654203 4.818148 1.8887563 3.731818 3.472927 2.750491
2.807202 3.0904408 0.52870613 3.5507257 1.1934053 2.5572696 1.0548303 2.2145927
1.5865033 2.4573011 3.7920198 2.149646 3.208008 1.3260237 0.9073532 0.25086737
2.6533678 4.560586 2.070725 2.550335 1.6872758 3.3006237 3.2229218 2.3756409

3.weight f4 [1, 200704]
00000000: 30ad d63b c06b af39 566e a1b9 416e 78bb
00000010: 68bb 1ab9 40d7 c4ba 5c3d 88bb 4f94 8eba
00000020: 1df9 e9ba e2f2 02bb 4f43 5637 fa46 65bb
00000030: 1128 4bb9 2a6e 7abb c965 58bb e697 c7ba
00000040: c296 ed38 4b03 28b8 f5fa 4eb9 cb84 01bb
00000050: a1de 8fb9 d403 08bb 377c 04bb 4eac 88ba
00000060: 1b3b 16ba 85ba f6ba 8918 5dbb 47f8 2ebb
00000070: d247 833a 5d2a f4ba af94 2fb9 67ed 9739
00000080: 5b5e 52bb 21cc 8aba 34df 16bb 563c e039
00000090: 95a2 08ba 8893 68bb efe0 ca39 1b06 08bb
000000a0: fb3a cab8 c327 7ebb 1f66 64bb fa83 7238
000000b0: d886 4a39 a953 9fba 2733 d8b9 b6a7 38bb
000000c0: 0b2e 6f39 91d6 1bba cf2a 89ba 2ccb 00bb
000000d0: 9962 aab9 dcc3 64bb 6c25 17bb dda8 98bb
000000e0: 0f50 53bc 3c29 bcbb 4396 cabb ee92 3abb
000000f0: 3b1b 2fbb a6da 23bb 51fa 88bb cd09 99bb
00000100: c54a 81bb d831 63bb 7617 a8bb d5e7 7ebb
00000110: 8411 5abb 9b26 76bb e581 87bb 8b58 8cbb
00000120: e20b f4bb a36a acbb e27b eebb 49e6 cbbb
00000130: b547 00bc 0ada e2bb 55ff e1bb aec0 92bb
00000140: d266 ecbb 8dc1 93bb 931e 95bb 198e 18bb
00000150: a75e 1fbb cebe 30bb c431 81bb d434 aabb
00000160: 7cfe bbbb e9fd 49bb fa76 ddbb a120 ddbb
00000170: 7db9 c5bb 4540 97bb 1499 3ebb 34d6 d8bb
00000180: 6c75 35bb edd8 49bb f4a0 88bb ae0a b3bb
00000190: 1983 b7bb 3ab7 d7bb bdb0 e8bb 775c a0bb
000001a0: 6b9c a6bb d7fb 1cbb 6564 b5bb d429 c6bb
000001b0: 27dd a3bb 9644 e8bb 95d5 a7bb ef02 0fbc
000001c0: 28a4 38bc 60b8 aebb a0fb d7bb 4e06 89bb
000001d0: bdfc b6bb 791e 39bb c665 81bb 5a81 95bb
000001e0: 5eb5 b7bb d32e c3bb 9032 d6bb 5398 c5bb
000001f0: 8dc2 c0bb b907 b1bb 5671 c9bb afdc bbbb
00000200: 33d4 fbbb bc30 01bc 4dd7 cabb b7ab e5bb
00000210: e0e1 fbbb faf0 cdbb 0dc2 abbb 5a7e 98bb
00000220: f1e5 e9bb 7042 8abb 8057 c7bb 8813 02bb
00000230: 9ca0 9cba 70c7 0eba 7d4f d8ba 4a27 a1bb
00000240: 5ac9 cabb e730 5fbb 4b49 afbb 1f91 9fbb
00000250: 726a 7dbb b50a 33bb 0c6e 8cbb 33f9 c3bb
00000260: 9d3c c5bb fa7b e6bb 5d33 d8bb 3458 d6bb
00000270: 3156 cbbb 60bd 6dbb 3fea 8ebb 56a7 45bb
00000280: 4424 dabb 70bb d5bb 8bb5 b9bb 454c b3bb
00000290: ddf2 77bb 41bf 8cbb 9d82 6bbb 3b2e 18bc
000002a0: 3907 46bc bd32 a0bb f4e7 babb e47d 80bb
000002b0: 3981 93bb 53bb a8bb 293f b1bb e424 64bb
000002c0: 6b6f c9bb 7c71 71bb b795 eabb adc3 dfbb
000002d0: 9e0f d6bb 8e3f f2bb c1f0 d9bb 1d69 c3bb
000002e0: 72e0 9dbb 4373 b7bb 87af d0bb 381d e7bb
000002f0: 2d4e d8bb 38a5 c4bb f5d0 e8bb 96eb ccbb
00000300: 73bf fcbb 7e7a febb e14e fbbb ec97 5cbb
00000310: 7c89 69bb 3e45 ceb9 5c78 99bb 9544 98bb
00000320: 70b6 c0bb d4d6 46bb 964f c8bb 8a89 e1bb
00000330: d94a b8bb 33a4 b3bb 98a0 8cbb 0200 7abb
00000340: a89a bdbb 90fc b9bb 181b e8bb ecb8 83bb
00000350: 7860 d6bb f8d6 ddbb 3f70 bcbb 896e 74bb
00000360: fe0b b1bb a60a cdbb e6f4 bcbb 866f 35bb
00000370: e385 81bb bc84 c9bb 5452 e4bb ed64 abbb
00000380: a677 44bc 06d0 d1bb 74f5 adbb 7579 acbb
00000390: 0928 8ebb aef1 98bb 234d adbb 8a98 77bb
000003a0: f0b7 95bb b352 e4bb 40d6 d0bb 1a15 b4bb
000003b0: e4fe c7bb e0ee 98bb 2db6 9bbb a63f 82bb
000003c0: 29b5 aabb cc23 e5bb 008a aabb 839e b5bb
000003d0: 9062 f4bb 5c8a a1bb 38ba f0bb 1543 01bc
000003e0: bc5e 7bbb b2dc 82bb 4549 a9bb c044 aebb
000003f0: 75a8 83bb c8a9 47bb 4e59 95bb ec28 24bb
0.0065514073 0.0003345888 -0.0003079052 -0.0037907513 -0.00014756399 -0.0015017763 -0.004157705 -0.001087794
-0.0017850731 -0.0019981195 1.27710655e-05 -0.0034984932 -0.00019374515 -0.0038212636 -0.0033019653 -0.0015227764
0.000113291215 -4.0057388e-05 -0.0001973918 -0.0019762989 -0.00027440957 -0.0020754235 -0.002021564 -0.0010427327
-0.00057308533 -0.0018823898 -0.0033736548 -0.0026698278 0.0010015911 -0.0018628348 -0.0001674469 0.00028977843
-0.0032099697 -0.00105894 -0.0023021223 0.00042769563 -0.0005212215 -0.0035488326 0.0003869603 -0.0020755592
-9.6430966e-05 -0.0038781024 -0.0034850908 5.782021e-05 0.00019314454 -0.001215567 -0.00041236842 -0.0028176135
0.00022809969 -0.00059447536 -0.0010465028 -0.001965235 -0.00032498388 -0.003490678 -0.0023063077 -0.004658802
-0.012897505 -0.00574222 -0.0061824634 -0.0028468925 -0.0026719111 -0.002500215 -0.0041802307 -0.004670358
-0.003945681 -0.003466716 -0.00512975 -0.0038895507 -0.00332746 -0.0037559632 -0.0041353577 -0.004283016
-0.0074477056 -0.0052617355 -0.0072779516 -0.0062225205 -0.007829596 -0.006922965 -0.006896893 -0.0044785356
-0.0072144056 -0.004509157 -0.004550764 -0.0023278056 -0.0024317892 -0.0026969197 -0.0039427 -0.005194286
-0.005737124 -0.0030821508 -0.006758568 -0.0067482744 -0.006034075 -0.004615816 -0.002908294 -0.006617332
-0.0027688397 -0.0030799464 -0.0041695777 -0.0054639196 -0.005600345 -0.0065831216 -0.007101147 -0.004893835
-0.0050845644 -0.002395382 -0.0055356496 -0.006047467 -0.0050007286 -0.007088254 -0.0051218965 -0.008728727
-0.011269607 -0.005332038 -0.0065912753 -0.00418166 -0.005584328 -0.0028246923 -0.0039489 -0.004562539
-0.0056063375 -0.0059565096 -0.0065367892 -0.0060301214 -0.0058825673 -0.005402532 -0.006147544 -0.0057330946
-0.007685208 -0.007885154 -0.0061902166 -0.0070089954 -0.0076868385 -0.00628483 -0.0052416385 -0.004653734
-0.007138007 -0.0042193457 -0.006083429 -0.0019848067 -0.0011949721 -0.00054465886 -0.0016503182 -0.0049180137
-0.0061885538 -0.0034056248 -0.0053493134 -0.0048695947 -0.0038668183 -0.0027319614 -0.0042855795 -0.0059806346
-0.0060191886 -0.007033822 -0.00659792 -0.0065412764 -0.006205343 -0.0036276206 -0.0043614204 -0.0030159554
-0.006657155 -0.0065225884 -0.0056673936 -0.0054717385 -0.0037833967 -0.00429526 -0.0035936006 -0.009288366
-0.012086683 -0.004888861 -0.0057039205 -0.0039212573 -0.0045014885 -0.005149284 -0.0054091406 -0.0034812028
-0.0061473153 -0.0036841324 -0.0071589607 -0.0068287463 -0.0065326234 -0.00739283 -0.0066510146 -0.005963458
-0.0048180157 -0.005598457 -0.0063685807 -0.0070530437 -0.006601116 -0.006001141 -0.0071049877 -0.00625367
-0.007713252 -0.007766067 -0.007669315 -0.0033659888 -0.0035634926 -0.0003934297 -0.0046835374 -0.0046468475
-0.0058811232 -0.003034045 -0.006113003 -0.006882851 -0.005624157 -0.0054822206 -0.004291605 -0.0038146977
-0.0057862587 -0.0056758597 -0.007083308 -0.004019847 -0.0065422617 -0.006770011 -0.0057506855 -0.003729733
-0.005403041 -0.006257373 -0.005766499 -0.0027684881 -0.003952728 -0.0061498564 -0.006967822 -0.005230537
-0.011991417 -0.006402972 -0.0053088013 -0.0052635022 -0.0043382687 -0.0046674823 -0.0052887364 -0.003778013
-0.004569046 -0.0069678663 -0.006373197 -0.0054956796 -0.0061033834 -0.004667148 -0.0047519417 -0.0039748726
-0.0052095843 -0.0069927927 -0.005204439 -0.0055425777 -0.0074580386 -0.004929824 -0.0073464178 -0.007889529
-0.0038356027 -0.003993594 -0.005166205 -0.005318254 -0.0040178844 -0.0030466188 -0.004557765 -0.0025048805
